GNet_A(Generator(
  (conv): ModuleList(
    (0): Conv2d(3, 64, kernel_size=(3, 3), stride=(1, 1), padding=(1, 1))
    (1): Conv2d(64, 64, kernel_size=(3, 3), stride=(1, 1), padding=(1, 1))
    (2): Conv2d(64, 64, kernel_size=(3, 3), stride=(1, 1), padding=(2, 2), dilation=(2, 2))
    (3): Conv2d(64, 64, kernel_size=(3, 3), stride=(1, 1), padding=(4, 4), dilation=(4, 4))
    (4): Conv2d(64, 64, kernel_size=(3, 3), stride=(1, 1), padding=(4, 4), dilation=(4, 4))
    (5): Conv2d(64, 64, kernel_size=(3, 3), stride=(1, 1), padding=(2, 2), dilation=(2, 2))
    (6): Conv2d(64, 64, kernel_size=(3, 3), stride=(1, 1), padding=(1, 1))
    (7): Conv2d(64, 3, kernel_size=(3, 3), stride=(1, 1), padding=(1, 1))
  )
  (bn): ModuleList(
    (0): BatchNorm2d(64, eps=64, momentum=0.1, affine=True, track_running_stats=True)
    (1): BatchNorm2d(64, eps=64, momentum=0.1, affine=True, track_running_stats=True)
    (2): BatchNorm2d(64, eps=64, momentum=0.1, affine=True, track_running_stats=True)
    (3): BatchNorm2d(64, eps=64, momentum=0.1, affine=True, track_running_stats=True)
    (4): BatchNorm2d(64, eps=64, momentum=0.1, affine=True, track_running_stats=True)
    (5): BatchNorm2d(64, eps=64, momentum=0.1, affine=True, track_running_stats=True)
  )
))
GNet_B(Generator(
  (conv): ModuleList(
    (0): Conv2d(3, 64, kernel_size=(3, 3), stride=(1, 1), padding=(1, 1))
    (1): Conv2d(64, 64, kernel_size=(3, 3), stride=(1, 1), padding=(1, 1))
    (2): Conv2d(64, 64, kernel_size=(3, 3), stride=(1, 1), padding=(2, 2), dilation=(2, 2))
    (3): Conv2d(64, 64, kernel_size=(3, 3), stride=(1, 1), padding=(4, 4), dilation=(4, 4))
    (4): Conv2d(64, 64, kernel_size=(3, 3), stride=(1, 1), padding=(4, 4), dilation=(4, 4))
    (5): Conv2d(64, 64, kernel_size=(3, 3), stride=(1, 1), padding=(2, 2), dilation=(2, 2))
    (6): Conv2d(64, 64, kernel_size=(3, 3), stride=(1, 1), padding=(1, 1))
    (7): Conv2d(64, 3, kernel_size=(3, 3), stride=(1, 1), padding=(1, 1))
  )
  (bn): ModuleList(
    (0): BatchNorm2d(64, eps=64, momentum=0.1, affine=True, track_running_stats=True)
    (1): BatchNorm2d(64, eps=64, momentum=0.1, affine=True, track_running_stats=True)
    (2): BatchNorm2d(64, eps=64, momentum=0.1, affine=True, track_running_stats=True)
    (3): BatchNorm2d(64, eps=64, momentum=0.1, affine=True, track_running_stats=True)
    (4): BatchNorm2d(64, eps=64, momentum=0.1, affine=True, track_running_stats=True)
    (5): BatchNorm2d(64, eps=64, momentum=0.1, affine=True, track_running_stats=True)
  )
))
DNet_A(Discriminator(
  (conv1): Conv2d(3, 64, kernel_size=(4, 4), stride=(2, 2), padding=(1, 1))
  (conv2): Conv2d(64, 128, kernel_size=(4, 4), stride=(2, 2), padding=(1, 1))
  (conv2_norm): InstanceNorm2d(128, eps=1e-05, momentum=0.1, affine=False, track_running_stats=False)
  (conv3): Conv2d(128, 256, kernel_size=(4, 4), stride=(2, 2), padding=(1, 1))
  (conv3_norm): InstanceNorm2d(256, eps=1e-05, momentum=0.1, affine=False, track_running_stats=False)
  (conv4): Conv2d(256, 512, kernel_size=(4, 4), stride=(1, 1), padding=(1, 1))
  (conv4_norm): InstanceNorm2d(512, eps=1e-05, momentum=0.1, affine=False, track_running_stats=False)
  (conv5): Conv2d(512, 1, kernel_size=(4, 4), stride=(1, 1), padding=(1, 1))
))
DNet_B(Discriminator(
  (conv1): Conv2d(3, 64, kernel_size=(4, 4), stride=(2, 2), padding=(1, 1))
  (conv2): Conv2d(64, 128, kernel_size=(4, 4), stride=(2, 2), padding=(1, 1))
  (conv2_norm): InstanceNorm2d(128, eps=1e-05, momentum=0.1, affine=False, track_running_stats=False)
  (conv3): Conv2d(128, 256, kernel_size=(4, 4), stride=(2, 2), padding=(1, 1))
  (conv3_norm): InstanceNorm2d(256, eps=1e-05, momentum=0.1, affine=False, track_running_stats=False)
  (conv4): Conv2d(256, 512, kernel_size=(4, 4), stride=(1, 1), padding=(1, 1))
  (conv4_norm): InstanceNorm2d(512, eps=1e-05, momentum=0.1, affine=False, track_running_stats=False)
  (conv5): Conv2d(512, 1, kernel_size=(4, 4), stride=(1, 1), padding=(1, 1))
))
TrainSetA(LandDataset(mode=train, image_size=(224, 224)))
TrainSetB(ArtistDataset(mode=train, image_size=(224, 224)))
ValSetA(LandDataset(mode=val, image_size=(224, 224)))
ValSetB(LandDataset(mode=val, image_size=(224, 224)))
GOptimizer(Adam (
Parameter Group 0
    amsgrad: False
    betas: (0.5, 0.999)
    eps: 1e-08
    lr: 1.7448878713438587e-19
…
